…
Namespace(Newactormodelname='model_actor61New_50', Newcriticmodelname='model_test61New_50', actor_optimizer='adam,lr=0.01', actormodelname='model_actor_1.pickle', batch_size=5, criticmodelname='model_test61_210_wrong.pickle', decay=0.99, dpout_fc=0.1, dpout_model=0.0, enc_lstm_dim=700, encoder_type='InferSent', fc_dim=512, gpu_id=0, lrshrink=1, max_norm=5.0, minlr=1e-05, n_classes=3, n_enc_layers=1, n_epochs=50, nlipath='dataset/SNLI/', nonlinear_fc=1, optimizer='sgd,lr=0.13', outputdir='savedir/sicke/sicke1/', pool_type='max', seed=1234, word_emb_dim=300, word_emb_path='dataset/glove.840B.300d.txt')
Found 2411(/2417) words with glove vectors
Vocab size : 2411
4500
5000
9927
4500
5000
9927
critic(
  (active_pred): InferSent(
    (rnn): GRU(300, 700, dropout=0.1)
    (rnn2): GRU(700, 700, dropout=0.1)
    (lin): Linear(in_features=700, out_features=700, bias=True)
    (emb_att): EmbedAttention(
      (att_w): Linear(in_features=700, out_features=1, bias=False)
    )
    (lin2): Linear(in_features=700, out_features=700, bias=True)
    (emb_att2): EmbedAttention(
      (att_w): Linear(in_features=700, out_features=1, bias=False)
    )
  )
  (target_pred): InferSent(
    (rnn): GRU(300, 700, dropout=0.1)
    (rnn2): GRU(700, 700, dropout=0.1)
    (lin): Linear(in_features=700, out_features=700, bias=True)
    (emb_att): EmbedAttention(
      (att_w): Linear(in_features=700, out_features=1, bias=False)
    )
    (lin2): Linear(in_features=700, out_features=700, bias=True)
    (emb_att2): EmbedAttention(
      (att_w): Linear(in_features=700, out_features=1, bias=False)
    )
  )
  (active_classifier): Sequential(
    (0): Dropout(p=0.1, inplace=False)
    (1): Linear(in_features=2800, out_features=512, bias=True)
    (2): Tanh()
    (3): Dropout(p=0.1, inplace=False)
    (4): Linear(in_features=512, out_features=512, bias=True)
    (5): Tanh()
    (6): Dropout(p=0.1, inplace=False)
    (7): Linear(in_features=512, out_features=3, bias=True)
  )
  (target_classifier): Sequential(
    (0): Dropout(p=0.1, inplace=False)
    (1): Linear(in_features=2800, out_features=512, bias=True)
    (2): Tanh()
    (3): Dropout(p=0.1, inplace=False)
    (4): Linear(in_features=512, out_features=512, bias=True)
    (5): Tanh()
    (6): Dropout(p=0.1, inplace=False)
    (7): Linear(in_features=512, out_features=3, bias=True)
  )
)
actor(
  (target_policy): policyNet(
    (W1): Linear(in_features=700, out_features=1, bias=False)
    (W2): Linear(in_features=700, out_features=1, bias=False)
    (W3): Linear(in_features=700, out_features=1, bias=True)
  )
  (active_policy): policyNet(
    (W1): Linear(in_features=700, out_features=1, bias=False)
    (W2): Linear(in_features=700, out_features=1, bias=False)
    (W3): Linear(in_features=700, out_features=1, bias=True)
  )
)
active_pred.rnn.weight_ih_l0
active_pred.rnn.weight_hh_l0
active_pred.rnn.bias_ih_l0
active_pred.rnn.bias_hh_l0
active_pred.rnn2.weight_ih_l0
active_pred.rnn2.weight_hh_l0
active_pred.rnn2.bias_ih_l0
active_pred.rnn2.bias_hh_l0
active_pred.lin.weight
active_pred.lin.bias
active_pred.emb_att.att_w.weight
active_pred.lin2.weight
active_pred.lin2.bias
…
